LGS-GNN/lr=0.01/cora_gnn.pth (torch, 239781 bytes, 4 tensors)

weight f4 [3703, 16]
00000000: a4ae 743e 2ca0 843e 83dc c235 35b6 483e
00000010: 1c0b 8fbe 97b5 02be 70cc 76be f744 b03e
00000020: ef8a 893c b506 6837 e10c 0fbe 2f99 d234
00000030: ebd1 a035 4a21 2b3e 9897 713d 37a1 92be
00000040: 164b 81be b0d7 563e c5dd 56b6 124d 523d
00000050: 40d6 b73e 5383 ce3d ffa9 41bf 72a2 053f
00000060: 955f 00be 34a7 afb8 8c10 e0be c584 8fb6
00000070: 3e8d 36b4 9190 243f 3604 ecbe 85a1 f0bc
00000080: f82c 29bc f3a0 a73b 9fb8 1b35 c11d 8ebb
00000090: 6d75 b33b 6570 4f3c 03e2 0ebc aac4 873b
000000a0: 082f 5ebb 540a ae35 3f02 e7ba 5cc4 d4b6
000000b0: 1a93 3a36 53c3 b43b 1620 34bc 4131 163b
000000c0: 69ee e43d 6c35 da3c 9f8a a1b4 d14d a23b
000000d0: 7e98 afbd 8af2 4fbd bd38 51bd 8cb4 403d
000000e0: e1ca 483d 6621 35b7 acf1 08bc ea9c 5836
000000f0: 19b2 2d34 d0ba 243d df0b 5a3d 6a61 bdbd
00000100: 0454 f8bb d198 afbc 8d76 2e36 9fef 28bc
00000110: 7aa2 db3d 99ce d4bc 7869 6ebd 5554 babb
00000120: 8474 5ebc 32aa 4cb6 5034 95b9 9edc c6b6
00000130: 7343 9c36 5e42 b03d cfe0 75bd b345 f83c
00000140: 398a 503e 247a 0e3e ba6f 77b6 3dec cb3d
00000150: feef 54be d665 16be 3898 00be 9a7f 783e
00000160: 126b e93d e400 7c36 9b31 01be d892 dbb5
00000170: bdf7 8e36 f651 e63d 4f1c 1f3e df81 0ebe
00000180: 37e7 b8bc 3a3a e13c 0228 ba34 0491 7d3c
00000190: c1e3 ea3c 32ae 3c3d 2697 c2bc 7c5d f53c
000001a0: 4df5 eebc 9d62 9f36 04ad d8bc 9ec6 ee35
000001b0: 4fa3 9536 ecea 803c 19aa 75bc 6287 a73c
000001c0: eea9 0536 c8a8 e436 9edb 4836 745c 0036
000001d0: 80d7 8135 7851 a936 6586 0336 280d 90b6
000001e0: 8988 7034 47a3 21b6 5987 5734 3fc8 a436
000001f0: 777c a836 1844 66b6 2946 0f36 e519 c9b6
00000200: 5d1c a335 5e8c 9d35 4a85 1bb6 49c5 ec35
00000210: e803 0934 452c a3b6 31ac db35 88ad 0cb6
00000220: 58d1 27b6 5746 84b5 ff2e 9db5 bf9b 76b5
00000230: 3507 a735 4307 7eb6 cafe ef35 58ce dab4
00000240: 0df6 613e aff2 a43d c086 4bb6 2d97 8f3d
00000250: 76ee f5bd 1021 92bd f992 ddbd 15ee fc3d
00000260: 2e86 bd3d 74f8 8036 dcf2 02bd 1a8a d1b4
00000270: 6d29 78b6 edab e43d 0196 e63d 01d9 21be
00000280: 3b42 843b 38f3 7dbb f030 d8b4 682b e9bb
00000290: 5c3e cfba a273 2fba 52a4 403b f36d 03ba
000002a0: 65dc 3dba a9d4 9835 2582 3b3b 54d2 9bb3
000002b0: 03ef 03b5 9682 9539 dcb1 0cbb f96a 053a
000002c0: d06e 233d 83d1 3e3e b5d3 b936 b3eb 273e
000002d0: a871 54be 1acb 47be 2d33 c03d 4e60 053e
000002e0: ef0f 173e 5c15 8134 d908 1bbe 33c1 aab4
000002f0: f0ab 86b4 0f2c 3cbe 69b0 7e3e b586 a43d
00000300: c12a 0b3d f9b0 18bd 3ed0 9134 8bad 55bc
00000310: 7082 1fbd 4327 c73d 5870 b93d fc25 a3bb
00000320: 1ad1 04bd 792c da37 defa 2c3d ecb6 a135
00000330: 26dc 2fb5 0c77 bebc 896c cc3b e837 b5ba
00000340: 0077 123e 5ce0 503e 70ec ed33 a3d1 c13e
00000350: f9e5 71be 0ea0 d0bd dc92 92bc 46c1 843e
00000360: cca6 e8bc 6078 65b8 aa0a e4bd c0ea 1bb6
00000370: 4743 8e36 5370 62bd cd23 c23e 5631 e0be
00000380: df02 a7bc 2e27 4b3d 1c24 8636 dfaf 743c
00000390: abfb 37bd 88d2 0fbd 48ee 873d 3362 aebc
000003a0: a7d7 eb3c caea 31b4 9589 c9bc ab35 d935
000003b0: 864b d1b3 3910 55bd 51c3 2c3c cade 0c3d
000003c0: c360 0ebd 0802 df3c daa0 5b35 e5ab 183d
000003d0: 2d73 413b eafc 903d 20bd 513a 841e 293d
000003e0: 8ade 9ebd ea37 a536 d225 80bd a623 afb4
000003f0: cf80 03b5 6655 79bc 2edd aabc 873a 8d3c
0.23894745 0.2590345 1.4518304e-06 0.19600756 -0.27938163 -0.12764584 -0.24101424 0.34427616
0.016789882 1.3829839e-05 -0.13969757 3.9227004e-07 1.1982023e-06 0.16711918 0.05898246 -0.28638622
-0.252526 0.20980716 -3.2017572e-06 0.05134303 0.35905647 0.10083642 -0.7565002 0.52200997
-0.12536462 -8.375794e-05 -0.43762624 -4.2771885e-06 -1.7001454e-07 0.6428309 -0.46096963 -0.029373894
-0.010325663 0.005115622 5.801066e-07 -0.004337043 0.0054766447 0.012661074 -0.008720878 0.004143317
-0.0033902545 1.2967016e-06 -0.0017624571 -6.3409516e-06 2.7801784e-06 0.0055164485 -0.010993978 0.0022917541
0.11178286 0.026636802 -3.0089447e-07 0.004953124 -0.085740075 -0.050768413 -0.0510795 0.047047183
0.049021605 -1.0796217e-05 -0.0083584 3.2277844e-06 1.6176672e-07 0.04021722 0.053233977 -0.09247096
-0.007578375 -0.021435173 2.5997026e-06 -0.010311036 0.10724349 -0.02597742 -0.05820605 -0.0056863227
-0.013577584 -3.0497436e-06 -0.0002845847 -5.926543e-06 4.6570144e-06 0.086064085 -0.060028847 0.030306673
0.20365228 0.1391378 -3.6870902e-06 0.09957168 -0.20794675 -0.14687285 -0.12558067 0.24267426
0.11397375 3.7551445e-06 -0.12616579 -1.6359509e-06 4.2607703e-06 0.112461016 0.15538143 -0.1391673
-0.02257119 0.027493585 3.467431e-07 0.015476469 0.028673055 0.046064563 -0.023753714 0.029951803
-0.029169703 4.7500494e-06 -0.026449688 1.7790187e-06 4.4595577e-06 0.01573702 -0.014994168 0.020450298
1.9917456e-06 6.8145782e-06 2.9930156e-06 1.91273e-06 9.673968e-07 5.0460767e-06 1.959875e-06 -4.293066e-06
2.2401413e-07 -2.408591e-06 2.0072675e-07 4.9108926e-06 5.02128e-06 -3.4312307e-06 2.13495e-06 -5.9932813e-06
1.2152701e-06 1.1738264e-06 -2.3174384e-06 1.7640788e-06 1.276054e-07 -4.862932e-06 1.6366886e-06 -2.0962634e-06
-2.5006793e-06 -9.855238e-07 -1.1711089e-06 -9.186878e-07 1.2444567e-06 -3.7853176e-06 1.7881041e-06 -4.07558e-07
0.22066517 0.08054101 -3.0327792e-06 0.07011256 -0.120083734 -0.071352124 -0.108190484 0.12350098
0.09254108 3.843621e-06 -0.03196989 -3.9029766e-07 -3.6978993e-06 0.11165605 0.1125908 -0.15805437
0.0040362156 -0.0038749706 -4.0268742e-07 -0.00711577 -0.0015811431 -0.0006692951 0.0029394818 -0.0005013637
-0.0007242619 1.1386775e-06 0.0028611508 -7.2560084e-08 -4.914911e-07 0.0002851679 -0.0021468317 0.00050894875
0.0399006 0.1863461 5.5380756e-06 0.16398506 -0.20746481 -0.19511071 0.09384761 0.13025019
0.14752172 2.4043663e-07 -0.15140094 -3.1805538e-07 -2.5084546e-07 -0.18376182 0.24871983 0.08033506
0.03397632 -0.03727815 2.715987e-07 -0.013041864 -0.038942754 0.097242855 0.09054631 -0.0049788933
-0.032425977 2.6008334e-05 0.042231433 1.2048672e-06 -6.551294e-07 -0.023250125 0.0062385243 -0.0013825865
0.14303207 0.20398086 1.107918e-07 0.37855253 -0.23622884 -0.10186778 -0.017892294 0.25928706
-0.028399847 -5.4709963e-05 -0.111348465 -2.3233442e-06 4.239762e-06 -0.055282902 0.3791794 -0.4378764
-0.020387111 0.04959791 3.997715e-06 0.014934509 -0.044917744 -0.035112888 0.066372454 -0.02128706
0.028789354 -1.6569825e-07 -0.024601737 1.6183379e-06 -9.7460585e-08 -0.052017424 0.010544614 0.034392156
-0.034760248 0.027222648 8.181793e-07 0.037273306 0.0029518113 0.070794895 0.0008000899 0.041288868
-0.0775729 4.9238924e-06 -0.06257214 -3.2622228e-07 -4.8988744e-07 -0.0152181145 -0.02085742 0.017239822

bias f4 [16]
00000000: 74da 313e f2d8 073e 8726 40b5 9b22 323e
00000010: 6d42 033e a996 f73d 6b84 203e a7e0 eb3d
00000020: 3d64 033e 5dca 47bb 4ae3 1c3e 4836 dfbc
00000030: 0fce 28bc 9d2c 2e3e 62d8 153e cf2f 243e
0.1736849 0.13266352 -7.158164e-07 0.17396013 0.12818308 0.12089283 0.15675513 0.115174584
0.12831207 -0.0030485608 0.15321079 -0.027247563 -0.010303034 0.17009206 0.14633325 0.16033863

weight f4 [16, 6]
00000000: 31f4 02c0 baff b63f 7dba b63f e122 173f
00000010: a9d0 0340 254e 05c0 3216 733f 3644 f1bf
00000020: e893 e9bf f99b ebbf 11c0 cc3f b230 e83f
00000030: e7f2 6bb6 24ca 8436 5211 c435 be88 70b6
00000040: 722b deb5 abb0 b9b5 a7b5 b33f 5e3a 02c0
00000050: 8b74 09c0 e5cb ed3f 8719 d13f ab9f bc3f
00000060: 89fd eb3f dfb6 0340 a412 19c0 1aa5 ea3f
00000070: f82e febf c1f0 e4bf e684 f53f ea5d 08c0
00000080: 6f64 d93f 0e86 e83f 51b1 eabf 6f55 f1bf
00000090: 203c e1bf 70ad e4bf 25eb e73f 8235 c03f
000000a0: ae29 d8bf bc40 fb3f 99d7 f63f d658 e5bf
000000b0: b87c 97bf 1539 bcbf 7b55 0440 e559 5abd
000000c0: 0758 edbf e185 0540 1e59 92bf 581e f0bf
000000d0: d451 cf3f b65c e13f 1435 013b f399 0bba
000000e0: 0646 b53a 817d 57ba 650b 37ba 4713 c637
000000f0: c0e0 f2bf 5bd6 c53f a5d6 d03f c14a e03f
00000100: fe9d f1bf 1e26 ecbf d496 d5b2 1e81 9fb6
00000110: 376a 3b34 cbba 59b7 18a8 7336 33fa ba36
00000120: 8318 7436 f634 b536 aec2 6f36 c03d c535
00000130: b3e2 3eb6 001a 4537 2c72 cd3f 0fa6 fb3f
00000140: 2ab0 f33e 64e7 f6bf 6510 9f3f 3dd9 d5bf
00000150: 30bc eabf a94a d9bf 14c8 d4bf aca7 0340
00000160: ea5a f93f 20d6 ea3f aa03 d13f b336 9cbe
00000170: d4ba ec3f 5e96 00c0 d7a7 07c0 5b1f 0e40
-2.0461543 1.4296792 1.4275662 0.59037596 2.0596106 -2.0828946 0.9495574 -1.8848941
-1.8248262 -1.8406974 1.5996114 1.8139861 -3.5159117e-06 3.957439e-06 1.4608179e-06 -3.5842381e-06
-1.6552933e-06 -1.3834991e-06 1.4039811 -2.0348125 -2.1477382 1.8577849 1.6335915 1.4736227
1.8436748 2.0580366 -2.3917627 1.8331635 -1.9858084 -1.7885972 1.9181182 -2.130732
1.6983775 1.816591 -1.8335363 -1.8854197 -1.7596474 -1.7865429 1.8118635 1.5016329
-1.688772 1.962913 1.9284545 -1.7917736 -1.1834936 -1.470492 2.0677173 -0.053308386
-1.8542489 2.0862963 -1.1433446 -1.875926 1.6196847 1.7606418 0.0019715475 -0.00053253694
0.0013830073 -0.00082203007 -0.0006982594 2.3612416e-05 -1.8974838 1.5456041 1.6315504 1.7522813
-1.887634 -1.8449132 -2.4865052e-08 -4.7536005e-06 1.7454373e-07 -1.2977699e-05 3.6307665e-06 5.572359e-06
3.63731e-06 5.400386e-06 3.5727094e-06 1.4695615e-06 -2.8444163e-06 1.1748169e-05 1.6050467 1.9660052
0.4759534 -1.9289365 1.2426878 -1.6706921 -1.833868 -1.697591 -1.6623559 2.0571089
1.948087 1.8346596 1.6329243 -0.30510482 1.8494515 -2.0091777 -2.1196191 2.2206638

bias f4 [6]
00000000: af55 d4bd 6360 c13e e91a 1b3e 2a9d 8abe
00000010: 41f0 f5be c5e3 53be
-0.10367905 0.3776885 0.15146984 -0.27073032 -0.48034862 -0.20692356
