LGS-GNN/lr=0.01/polblogs_gnn.pth (torch, 97917 bytes, 4 tensors)

weight f4 [1490, 16]
-0.054020863 -0.050939016 0.05758962 0.02485455 0.03085287 0.05502654 0.030738028 -0.05240653
0.034630198 0.03317436 -0.033252314 0.05478357 0.047560804 -0.028814875 -0.053513847 -0.06451445
-0.19024083 -0.15165758 0.16184464 0.107780315 0.15140022 0.137221 0.109443314 -0.13676088
0.109642014 0.09026878 -0.10151159 0.15725042 0.14854878 -0.1004806 -0.18015824 -0.1688127
5.4269444e-06 -9.830017e-07 5.801066e-07 3.1127386e-06 9.798478e-07 5.1281145e-06 -6.575918e-07 -1.2574974e-06
-5.983019e-07 1.0859233e-06 -2.8162328e-06 -6.3409516e-06 2.7801784e-06 9.515328e-07 2.670573e-06 9.625505e-07
-1.9531517e-06 -3.9189986e-06 -3.0089447e-07 -1.7109944e-06 -5.020265e-06 3.8009189e-06 -8.28794e-07 -2.704768e-06
1.1079754e-06 1.6727316e-07 5.932599e-06 3.2277844e-06 1.6176672e-07 5.0267154e-06 1.9854895e-06 1.9663162e-06
-0.29863337 -0.29950967 0.33084548 0.24499454 0.27191615 0.26894674 0.24483764 -0.21345648
0.26381546 0.19890134 -0.22462755 0.26138052 0.3133478 -0.2500315 -0.26146156 -0.25809672
-0.00024688002 -0.00025567674 0.0002851586 0.00011058782 -5.9159218e-05 8.2804465e-05 2.2885246e-05 -0.00041621734
0.00024904896 9.997341e-05 -0.00014399394 0.0008411546 0.00046832638 -0.000120833894 -0.00040670452 -0.00030156187
-0.014990262 -0.017763743 0.03129301 0.0031786251 0.0074623595 0.021226112 0.003918013 -0.020314496
0.0069045587 0.008882981 -0.004369618 0.0040237457 0.007887534 -0.00070881494 -0.015118282 -0.031141529
-0.067177355 -0.052908756 0.08286921 0.04652728 0.060306568 0.061480787 0.041966867 -0.07882401
0.049526025 0.038954217 -0.0540849 0.080418155 0.06921875 -0.04376573 -0.07262304 -0.081658006
-0.018871514 -0.016566709 0.016972829 0.015515692 0.011543962 0.020023806 0.0082964515 -0.018506927
0.007825385 0.009495588 -0.017898519 0.024332028 0.022576123 -0.010172995 -0.011893093 -0.013567037
-0.040785775 -0.028814038 0.039800346 0.026494948 0.031287737 0.028240282 0.017647993 -0.024539165
0.021099664 0.02049199 -0.025044627 0.029764466 0.03400659 -0.025334362 -0.023917675 -0.021292632
-0.2526048 -0.3009759 0.4727952 0.41273594 0.44349012 0.3904922 0.42118326 -0.22203489
0.5452572 0.43975237 -0.22464989 0.483887 0.5824889 -0.29446757 -0.3493786 -0.3136345
-0.1072286 -0.09603062 0.10000362 0.062350042 0.10825846 0.0892605 0.066742845 -0.06398747
0.07855032 0.04707737 -0.04401448 0.101958334 0.080672756 -0.058397524 -0.08559367 -0.06414198
-0.10388679 -0.076391555 0.06760737 0.061967015 0.088534996 0.051164586 0.055215828 -0.07992511
0.059914637 0.057849456 -0.060156345 0.0617059 0.06472639 -0.070653714 -0.07878729 -0.112332046
-0.109091915 -0.090542935 0.121701084 0.06868377 0.09745987 0.08773265 0.058434583 -0.10392424
0.0623349 0.060699433 -0.086473346 0.09765012 0.09437859 -0.065398805 -0.1061253 -0.13903894
-0.21211277 -0.18726021 0.21136159 0.12177918 0.17384712 0.16215518 0.12161164 -0.20457457
0.12793282 0.114297874 -0.13230501 0.20527214 0.15773018 -0.1265026 -0.19754271 -0.21659249
-0.13511518 -0.13205408 0.13482386 0.09428808 0.14458264 0.096301496 0.08340297 -0.12999952
0.078152634 0.08610116 -0.1306151 0.1528218 0.118736245 -0.07759675 -0.13017935 -0.14650111
00000000: fb44 5dbd 6ea5 50bd 18e3 6b3d c59b cb3c
00000010: 28bf fc3c 8263 613d 51ce fb3c 3ba8 56bd
00000020: 65d8 0d3d d6e1 073d 9433 08bd bd64 603d
00000030: 1ecf 423d 2c0d ecbc 5631 5bbd 2720 84bd
00000040: 7ece 42be 204c 1bbe 9aba 253e edbb dc3d
00000050: a908 1b3e a983 0c3e d123 e03d 0b0b 0cbe
00000060: fe8b e03d d7de b83d 4fe5 cfbd 4106 213e
00000070: 2c1d 183e c6c8 cdbd 677b 38be 3ddd 2cbe
00000080: 1919 b636 aeef 83b5 9fb8 1b35 71e4 5036
00000090: 5083 8335 2b12 ac36 5d85 30b5 48c7 a8b5
000000a0: fe9a 20b5 0ac0 9135 83fe 3cb6 5cc4 d4b6
000000b0: 1a93 3a36 d66c 7f35 1838 3336 fc30 8135
000000c0: e412 03b6 f17f 83b6 9f8a a1b4 52a5 e5b5
000000d0: bf73 a8b6 4a13 7f36 4a7a 5eb5 8f83 35b6
000000e0: bfb5 9435 b29b 3334 a310 c736 ea9c 5836
000000f0: 19b2 2d34 28ab a836 733e 0536 0ef5 0336
00000100: 79e6 98be 5559 99be 9464 a93e d9df 7a3e
00000110: 9838 8b3e 63b3 893e b8b6 7a3e 5694 5abe
00000120: d212 873e cbac 4b3e c404 66be abd3 853e
00000130: 1f6f a03e 2104 80be 4ade 85be 4125 84be
00000140: ad6f 81b9 5a0c 86b9 5781 9539 62eb e738
00000150: ba21 78b8 4fa7 ad38 b1f9 bf37 bf37 dab9
00000160: c992 8239 d1a8 d138 14fd 16b9 ee80 5c3a
00000170: b489 f539 3468 fdb8 f53a d5b9 f31a 9eb9
00000180: b799 75bc 4585 91bc 192d 003d 7b50 503b
00000190: cf86 f43b 62e2 ad3c ad62 803b 966a a6bc
000001a0: a33f e23b ec89 113c 032f 8fbb a0d9 833b
000001b0: b73a 013c c4cf 39ba acb2 77bc 851c ffbc
000001c0: 4894 89bd dab6 58bd 55b7 a93d 6493 3e3d
000001d0: 0504 773d 47d3 7b3d 73e5 2b3d 7c6e a1bd
000001e0: cddb 4a3d 758e 1f3d 2188 5dbd 46b2 a43d
000001f0: 8fc2 8d3d b243 33bd 63bb 94bd 503c a7bd
00000200: 6f98 9abc e8b6 87bc 9a0a 8b3c 8735 7e3c
00000210: e322 3d3c f708 a43c d7ed 073c d79b 97bc
00000220: 0b36 003c 6293 1b3c ea9f 92bc f653 c73c
00000230: 90f1 b83c a2ac 26bc 3fdb 42bc 4748 5ebc
00000240: fc0e 27bd 6b0b ecbc b005 233d ef0b d93c
00000250: 9227 003d 2a58 e73c 8692 903c 5c06 c9bc
00000260: 34d9 ac3c d1de a73c 642a cdbc 9cd4 f33c
00000270: 7e4a 0b3d 028a cfbc 00ef c3bc e36d aebc
00000280: 6b55 81be 8319 9abe 3612 f23e 2052 d33e
00000290: 2311 e33e 98ee c73e 55a5 d73e 1d5d 63be
000002a0: fa95 0b3f 3927 e13e 9f0a 66be 09c0 f73e
000002b0: fe1d 153f 74c4 96be c0e1 b2be b494 a0be
000002c0: ab9a dbbd b4ab c4bd b3ce cc3d c262 7f3d
000002d0: 9db6 dd3d 36ce b63d 79b0 883d dd0b 83bd
000002e0: fdde a03d 33d4 403d 8748 34bd 88cf d03d
000002f0: c237 a53d 3e32 6fbd bc4b afbd df5c 83bd
00000300: 99c2 d4bd 2d73 9cbd bc75 8a3d 20d1 7d3d
00000310: d651 b53d f591 513d fe29 623d c7af a3bd
00000320: 0d69 753d 8df3 6c3d 8066 76bd 53bf 7c3d
00000330: 458f 843d e5b2 90bd 3b5b a1bd 580e e6bd
00000340: 956b dfbd 936e b9bd 6b3e f93d 14aa 8c3d
00000350: 0a99 c73d 2dad b33d 1a59 6f3d 3bd6 d4bd
00000360: e152 7f3d f89f 783d f018 b1bd c9fc c73d
00000370: 9049 c13d cfef 85bd 3958 d9bd 3960 0ebe
00000380: 1734 59be 24c1 3fbe 2c6f 583e 5d67 f93d
00000390: fb04 323e 020c 263e 860f f93d ff7b 51be
000003a0: d200 033e 0115 ea3d f77a 07be dc32 523e
000003b0: 0584 213e e689 01be a348 4abe 6cca 5dbe
000003c0: a25b 0abe 2f39 07be 440f 0a3e 1c1a c13d
000003d0: 790d 143e b839 c53d 2dcf aa3d 981e 05be
000003e0: 7d0e a03d ce55 b03d f7bf 05be 517d 1c3e
000003f0: fd2b f33d 0beb 9ebd bc4d 05be 6304 16be

bias f4 [16]
0.2342262 0.24792714 0.13909958 0.15217414 0.14761987 0.12865525 0.16556068 0.16124077
0.16716076 0.16381893 0.15973103 0.1436094 0.13543436 0.21802767 0.19840384 0.18654585
00000000: fed8 6f3e 9de0 7d3e 1f70 0e3e 8ad3 1b3e
00000010: aa29 173e 34be 033e bd88 293e 4d1c 253e
00000020: 312c 2b3e 26c0 273e 8890 233e 580e 133e
00000030: 4eaf 0a3e a542 5f3e 602a 4b3e e005 3f3e

weight f4 [16, 2]
-1.1740962 1.482374 -1.339042 0.9582743 1.5777141 -1.6798809 1.3472819 -0.60267866
1.6651438 -1.2637739 1.4438396 -1.1806953 0.5006262 -1.2508757 -1.5562412 1.5539639
1.1854254 -0.6508974 0.7586852 -0.9793062 -0.46068683 1.5401342 1.9323994 -1.4606999
1.4926593 -1.817001 -1.4573225 0.2500454 -1.2160312 1.4934504 -1.8584254 1.259113
00000000: c948 96bf 6ebe bd3f ba65 abbf 7751 753f
00000010: 89f2 c93f 5606 d7bf bc73 ac3f 2649 1abf
00000020: 6f23 d53f 58c3 a1bf bccf b83f 0621 97bf
00000030: 0a29 003f b21c a0bf e932 c7bf 4ae8 c63f
00000040: 05bc 973f 36a1 26bf 3139 423f d0b3 7abf
00000050: 25df ebbe 1e23 c53f dd58 f73f 37f8 babf
00000060: 760f bf3f 7d93 e8bf 8b89 babf f305 803e
00000070: e9a6 9bbf 6229 bf3f e2e0 edbf 9d2a a13f

bias f4 [2]
0.16482265 0.3696235
00000000: 45c7 283e 4b3f bd3e
